…
475, 912, 676, 266, 271, 862, 552, 732, 863, 306, 1390, 295, 129, 78, 80, 87, 89, 90, 113, 641, 791, 23, 639, 452, 918, 1321, 1336, 120, 787, 788, 125, 786, 805, 823, 824, 203, 209, 359, 538, 378, 379, 73, 426, 565, 324, 613, 825, 407, 401, 762, 457, 774, 98, 798, 776, 506, 273, 527, 276, 277, 279, 281, 288, 290, 294, 303, 305, 307, 1391, 522, 640, 297, 27, 1021, 121, 122, 126, 208, 532, 114, 416, 916, 1333, 590, 321, 425, 350, 304, 521, 759]
use_hierarchical_classifier:True --> model:BertWithHierarchicalClassifier(
  (model): BertModel(
    (embeddings): BertEmbeddings(
      (word_embeddings): Embedding(30522, 768, padding_idx=0)
      (position_embeddings): Embedding(512, 768)
      (token_type_embeddings): Embedding(2, 768)
      (LayerNorm): LayerNorm((768,), eps=1e-12, elementwise_affine=True)
      (dropout): Dropout(p=0.1, inplace=False)
    )
    (encoder): BertEncoder(
      (layer): ModuleList(
        (0-11): 12 x BertLayer(
          (attention): BertAttention(
            (self): BertSelfAttention(
              (query): Linear(in_features=768, out_features=768, bias=True)
              (key): Linear(in_features=768, out_features=768, bias=True)
              (value): Linear(in_features=768, out_features=768, bias=True)
              (dropout): Dropout(p=0.1, inplace=False)
            )
            (output): BertSelfOutput(
              (dense): Linear(in_features=768, out_features=768, bias=True)
              (LayerNorm): LayerNorm((768,), eps=1e-12, elementwise_affine=True)
              (dropout): Dropout(p=0.1, inplace=False)
            )
          )
          (intermediate): BertIntermediate(
            (dense): Linear(in_features=768, out_features=3072, bias=True)
            (intermediate_act_fn): GELUActivation()
          )
          (output): BertOutput(
            (dense): Linear(in_features=3072, out_features=768, bias=True)
            (LayerNorm): LayerNorm((768,), eps=1e-12, elementwise_affine=True)
            (dropout): Dropout(p=0.1, inplace=False)
          )
        )
      )
    )
    (pooler): BertPooler(
      (dense): Linear(in_features=768, out_features=768, bias=True)
      (activation): Tanh()
    )
  )
  (classifier): HierarchicalClassifier(
    (linear): Linear(in_features=768, out_features=234, bias=True)
    (sigmoid): Sigmoid()
  )
)
HierarchicalClassifier(
  (linear): Linear(in_features=768, out_features=234, bias=True)
  (sigmoid): Sigmoid()
)
Parameter containing:
tensor([[0., 0., 0.,  ..., 0., 0., 0.],
        [0., 0., 0.,  ..., 0., 0., 0.],
        [0., 0., 0.,  ..., 0., 0., 0.],
        ...,
        [0., 0., 0.,  ..., 0., 0., 0.],
        [0., 0., 0.,  ..., 0., 0., 0.],
        [0., 0., 0.,  ..., 0., 0., 0.]])
Parameter containing:
tensor([0., 0., 0., 0., 0., 0., 0., 0., 0., 0., 0., 0., 0., 0., 0., 0., 0., 0., 0., 0., 0., 0., 0., 0.,
…
